…
         [0],
         [0],
         [0]]]), tensor([ 0.8244,  0.7034,  1.0137,  ...,  0.0482,  0.5698, -0.2372])]
I0611 07:43:57.179980 140711206703488 sim.py:968] unused_bs, plan_feat_dims, unused_max_tree_nodes (1024, 27, 10)
I0611 07:43:57.180260 140711206703488 sim.py:753] SIM query_feat_dims=8 plan_feat_dims=27
I0611 07:43:57.180493 140711206703488 sim.py:755] SIM query_feat=<class 'sim.SimQueryFeaturizer'> plan_feat=<class 'balsa.util.plans_lib.PhysicalTreeNodeFeaturizer'>
Number of model parameters: 605473 (~= 2.3MB)
SimModel(
  (tree_conv): TreeConvolution(
    (query_mlp): Sequential(
      (0): Linear(in_features=8, out_features=128, bias=True)
      (1): LayerNorm((128,), eps=1e-05, elementwise_affine=True)
      (2): LeakyReLU(negative_slope=0.01)
      (3): Linear(in_features=128, out_features=64, bias=True)
      (4): LayerNorm((64,), eps=1e-05, elementwise_affine=True)
      (5): LeakyReLU(negative_slope=0.01)
      (6): Linear(in_features=64, out_features=32, bias=True)
    )
    (conv): Sequential(
      (0): TreeConv1d(
        (weights): Conv1d(59, 512, kernel_size=(3,), stride=(3,))
      )
      (1): TreeStandardize()
      (2): TreeAct(
        (activation): LeakyReLU(negative_slope=0.01)
      )
      (3): TreeConv1d(
        (weights): Conv1d(512, 256, kernel_size=(3,), stride=(3,))
      )
      (4): TreeStandardize()
      (5): TreeAct(
        (activation): LeakyReLU(negative_slope=0.01)
      )
      (6): TreeConv1d(
        (weights): Conv1d(256, 128, kernel_size=(3,), stride=(3,))
      )
      (7): TreeStandardize()
      (8): TreeAct(
        (activation): LeakyReLU(negative_slope=0.01)
      )
      (9): TreeMaxPool()
    )
    (out_mlp): Sequential(
      (0): Linear(in_features=128, out_features=64, bias=True)
      (1): LayerNorm((64,), eps=1e-05, elementwise_affine=True)
      (2): LeakyReLU(negative_slope=0.01)
      (3): Linear(in_features=64, out_features=32, bias=True)
      (4): LayerNorm((32,), eps=1e-05, elementwise_affine=True)
      (5): LeakyReLU(negative_slope=0.01)
      (6): Linear(in_features=32, out_features=1, bias=True)
    )
  )
)
GPU available: False, used: False
I0611 07:43:57.209143 140711206703488 distributed.py:41] GPU available: False, used: False
TPU available: False, using: 0 TPU cores
I0611 07:43:57.209717 140711206703488 distributed.py:41] TPU available: False, using: 0 TPU cores
/home/balsa/anaconda3/envs/balsa/lib/python3.7/site-packages/pytorch_lightning/utilities/distributed.py:37: UserWarning: Could not log computational graph since the `model.example_input_array` attribute is not set or `input_array` was not given
…
